…
 0 1 0 0 1 1 2 0 1 0 0 1 1 2 2 1 1 1 1 0 1 2 1 0 1 2 0 1 2 1 0 2 2 0 0 2 0
 2 1 0 2 2 2 2 1 2 1 0 0 1 0 2 0 2 2 0 0 0 1 2 2 0 1 0 2 2 2 1 1 1 1 2 1 0
 0 0 2 2 1 0 2 1 2 2 0 2 1 2 1 0 1 1 0 2 0 2 0 1 1 2 1 1 1 2 2 0 2 0 0 2 1
 2 2 1 2 1 2 1 1 1 0 2 1 0 0 1 1 0 0 2 0 0 1 0 2 1 2 2 0 2 0 2 1 2 2 1 2 2
 0 1 2 2 2 1 0 1 1 0 0 2 1 1 2 2 0 2 2 0 1 2 1 1 0 0 2 0 2 2 2 2 1 2 1 1 2
 1]
INFO : Training sample size: 1976
INFO : Validation sample size: 658
INFO : Test sample size: 658
2019-06-02 08:49:54,439 INFO : Model: 
Sequential(
  (dimshuffle): Expression(expression=_transpose_time_to_spat)
  (conv_time): Conv2d(1, 25, kernel_size=(10, 1), stride=(1, 1))
  (conv_spat): Conv2d(25, 25, kernel_size=(1, 62), stride=(1, 1), bias=False)
  (bnorm): BatchNorm2d(25, eps=1e-05, momentum=0.1, affine=True, track_running_stats=True)
  (conv_nonlin): Expression(expression=elu)
  (pool): MaxPool2d(kernel_size=(3, 1), stride=(1, 1), padding=0, dilation=(1, 1), ceil_mode=False)
  (pool_nonlin): Expression(expression=identity)
  (drop_2): Dropout(p=0.5)
  (conv_2): Conv2d(25, 50, kernel_size=(10, 1), stride=(1, 1), dilation=(3, 1), bias=False)
  (bnorm_2): BatchNorm2d(50, eps=1e-05, momentum=0.1, affine=True, track_running_stats=True)
  (nonlin_2): Expression(expression=elu)
  (pool_2): MaxPool2d(kernel_size=(3, 1), stride=(1, 1), padding=0, dilation=(3, 1), ceil_mode=False)
  (pool_nonlin_2): Expression(expression=identity)
  (drop_3): Dropout(p=0.5)
  (conv_3): Conv2d(50, 100, kernel_size=(10, 1), stride=(1, 1), dilation=(9, 1), bias=False)
  (bnorm_3): BatchNorm2d(100, eps=1e-05, momentum=0.1, affine=True, track_running_stats=True)
  (nonlin_3): Expression(expression=elu)
  (pool_3): MaxPool2d(kernel_size=(3, 1), stride=(1, 1), padding=0, dilation=(9, 1), ceil_mode=False)
  (pool_nonlin_3): Expression(expression=identity)
  (drop_4): Dropout(p=0.5)
  (conv_4): Conv2d(100, 200, kernel_size=(10, 1), stride=(1, 1), dilation=(27, 1), bias=False)
  (bnorm_4): BatchNorm2d(200, eps=1e-05, momentum=0.1, affine=True, track_running_stats=True)
  (nonlin_4): Expression(expression=elu)
  (pool_4): MaxPool2d(kernel_size=(3, 1), stride=(1, 1), padding=0, dilation=(27, 1), ceil_mode=False)
  (pool_nonlin_4): Expression(expression=identity)
  (conv_classifier): Conv2d(200, 3, kernel_size=(1, 1), stride=(1, 1), dilation=(81, 1))
  (softmax): LogSoftmax()
  (squeeze): Expression(expression=_squeeze_final_output)
)
2019-06-02 08:49:54,482 INFO : Run until first stop...
